…
I0117 15:36:55.650879  6628 net.cpp:322] The NetState phase (0) differed from the phase (1) specified by a rule in layer accuracy
I0117 15:36:55.651880  6628 net.cpp:58] Initializing net from parameters:
state {
phase: TRAIN
level: 0
stage: ""
}
layer {
name: "data"
type: "Data"
top: "data"
include {
phase: TRAIN
}
transform_param {
mean_value: 139.81091
}
data_param {
source: "C:/Projects/digits/digits/jobs/20190117-002215-7760/train_db/features"
batch_size: 64
backend: LMDB
}
}
layer {
name: "label"
type: "Data"
top: "label"
include {
phase: TRAIN
}
data_param {
source: "C:/Projects/digits/digits/jobs/20190117-002215-7760/train_db/labels"
batch_size: 64
backend: LMDB
}
}
layer {
name: "conv_d0a-b"
type: "Convolution"
bottom: "data"
top: "d0b"
param {
lr_mult: 1
decay_mult: 1
}
param {
lr_mult: 2
decay_mult: 0
}
convolution_param {
num_output: 64
pad: 1
kernel_size: 3
stride: 1
weight_filler {
type: "msra"
}
}
}
layer {
name: "relu_d0b"
type: "ReLU"
bottom: "d0b"
top: "d0b"
}
layer {
name: "conv_d0b-c"
type: "Convolution"
bottom: "d0b"
top: "d0c"
param {
lr_mult: 1
decay_mult: 1
}
param {
lr_mult: 2
decay_mult: 0
}
convolution_param {
num_output: 64
pad: 1
kernel_size: 3
weight_filler {
type: "msra"
}
}
}
layer {
name: "relu_d0c"
type: "ReLU"
bottom: "d0c"
top: "d0c"
}
layer {
name: "pool_d0c-1a"
type: "Pooling"
bottom: "d0c"
top: "d1a"
pooling_param {
pool: MAX
kernel_size: 2
stride: 2
}
}
layer {
name: "conv_d1a-b"
type: "Convolution"
bottom: "d1a"
top: "d1b"
param {
lr_mult: 1
decay_mult: 1
}
param {
lr_mult: 2
decay_mult: 0
}
convolution_param {
num_output: 128
pad: 1
kernel_size: 3
weight_filler {
type: "msra"
}
}
}
layer {
name: "relu_d1b"
type: "ReLU"
bottom: "d1b"
top: "d1b"
}
layer {
name: "conv_d1b-c"
type: "Convolution"
bottom: "d1b"
top: "d1c"
param {
lr_mult: 1
decay_mult: 1
}
param {
lr_mult: 2
decay_mult: 0
}
convolution_param {
num_output: 128
pad: 1
kernel_size: 3
weight_filler {
type: "msra"
}
}
}
layer {
name: "relu_d1c"
type: "ReLU"
bottom: "d1c"
top: "d1c"
}
layer {
name: "pool_d1c-2a"
type: "Pooling"
bottom: "d1c"
top: "d2a"
pooling_param {
pool: MAX
kernel_size: 2
stride: 2
}
}
layer {
name: "conv_d2a-b"
type: "Convolution"
bottom: "d2a"
top: "d2b"
param {
lr_mult: 1
decay_mult: 1
}
param {
lr_mult: 2
decay_mult: 0
}
convolution_param {
num_output: 256
pad: 1
kernel_size: 3
weight_filler {
type: "msra"
}
}
}
layer {
name: "relu_d2b"
type: "ReLU"
bottom: "d2b"
top: "d2b"
}
layer {
name: "conv_d2b-c"
type: "Convolution"
bottom: "d2b"
top: "d2c"
param {
lr_mult: 1
decay_mult: 1
}
param {
lr_mult: 2
decay_mult: 0
}
convolution_param {
num_output: 256
pad: 1
kernel_size: 3
weight_filler {
type: "msra"
}
}
}
layer {
name: "relu_d2c"
type: "ReLU"
bottom: "d2c"
top: "d2c"
}
layer {
name: "pool_d2c-3a"
type: "Pooling"
bottom: "d2c"
top: "d3a"
pooling_param {
pool: MAX
kernel_size: 2
stride: 2
}
}
layer {
name: "conv_d3a-b"
type: "Convolution"
bottom: "d3a"
top: "d3b"
param {
lr_mult: 1
decay_mult: 1
}
param {
lr_mult: 2
decay_mult: 0
}
convolution_param {
num_output: 512
pad: 1
kernel_size: 3
weight_filler {
type: "msra"
}
}
}
layer {
name: "relu_d3b"
type: "ReLU"
bottom: "d3b"
top: "d3b"
}
layer {
name: "conv_d3b-c"
type: "Convolution"
bottom: "d3b"
top: "d3c"
param {
lr_mult: 1
decay_mult: 1
}
param {
lr_mult: 2
decay_mult: 0
}
convolution_param {
num_output: 512
pad: 1
kernel_size: 3
weight_filler {
type: "msra"
}
}
}
layer {
name: "relu_d3c"
type: "ReLU"
bottom: "d3c"
top: "d3c"
}
layer {
name: "upconv_d3c_u2a"
type: "Deconvolution"
bottom: "d3c"
top: "u2a"
param {
lr_mult: 1
decay_mult: 1
}
param {
lr_mult: 2
decay_mult: 0
}
convolution_param {
num_output: 256
pad: 0
kernel_size: 2
stride: 2
weight_filler {
type: "msra"
}
}
}
layer {
name: "relu_u2a"
type: "ReLU"
bottom: "u2a"
top: "u2a"
}
layer {
name: "concat_d2cc_u2a-b"
type: "Concat"
bottom: "u2a"
bottom: "d2c"
top: "u2b"
}
layer {
name: "conv_u2b-c"
type: "Convolution"
bottom: "u2b"
top: "u2c"
param {
lr_mult: 1
decay_mult: 1
}
param {
lr_mult: 2
decay_mult: 0
}
convolution_param {
num_output: 256
pad: 1
kernel_size: 3
weight_filler {
type: "msra"
}
}
}
layer {
name: "relu_u2c"
type: "ReLU"
bottom: "u2c"
top: "u2c"
}
layer {
name: "conv_u2c-d"
type: "Convolution"
bottom: "u2c"
top: "u2d"
param {
lr_mult: 1
decay_mult: 1
}
param {
lr_mult: 2
decay_mult: 0
}
convolution_param {
num_output: 256
pad: 1
kernel_size: 3
weight_filler {
type: "msra"
}
}
}
layer {
name: "relu_u2d"
type: "ReLU"
bottom: "u2d"
top: "u2d"
}
layer {
name: "upconv_u2d_u1a"
type: "Deconvolution"
bottom: "u2d"
top: "u1a"
param {
lr_mult: 1
decay_mult: 1
}
param {
lr_mult: 2
decay_mult: 0
}
convolution_param {
num_output: 128
pad: 0
kernel_size: 2
stride: 2
weight_filler {
type: "msra"
}
}
}
layer {
name: "relu_u1a"
type: "ReLU"
bottom: "u1a"
top: "u1a"
}
layer {
name: "concat_d1cc_u1a-b"
type: "Concat"
bottom: "u1a"
bottom: "d1c"
top: "u1b"
}
layer {
name: "conv_u1b-c"
type: "Convolution"
bottom: "u1b"
top: "u1c"
param {
lr_mult: 1
decay_mult: 1
}
param {
lr_mult: 2
decay_mult: 0
}
convolution_param {
num_output: 128
pad: 1
kernel_size: 3
weight_filler {
type: "msra"
}
}
}
layer {
name: "relu_u1c"
type: "ReLU"
bottom: "u1c"
top: "u1c"
}
layer {
name: "conv_u1c-d"
type: "Convolution"
bottom: "u1c"
top: "u1d"
param {
lr_mult: 1
decay_mult: 1
}
param {
lr_mult: 2
decay_mult: 0
}
convolution_param {
num_output: 128
pad: 1
kernel_size: 3
weight_filler {
type: "msra"
}
}
}
layer {
name: "relu_u1d"
type: "ReLU"
bottom: "u1d"
top: "u1d"
}
layer {
name: "upconv_u1d_u0a_NEW"
type: "Deconvolution"
bottom: "u1d"
top: "u0a"
param {
lr_mult: 1
decay_mult: 1
}
param {
lr_mult: 2
decay_mult: 0
}
convolution_param {
num_output: 64
pad: 0
kernel_size: 2
stride: 2
weight_filler {
type: "msra"
}
}
}
layer {
name: "relu_u0a"
type: "ReLU"
bottom: "u0a"
top: "u0a"
}
layer {
name: "concat_d0cc_u0a-b"
type: "Concat"
bottom: "u0a"
bottom: "d0c"
top: "u0b"
}
layer {
name: "conv_u0b-c_New"
type: "Convolution"
bottom: "u0b"
top: "u0c"
param {
lr_mult: 1
decay_mult: 1
}
param {
lr_mult: 2
decay_mult: 0
}
convolution_param {
num_output: 64
pad: 1
kernel_size: 3
weight_filler {
type: "msra"
}
}
}
layer {
name: "relu_u0c"
type: "ReLU"
bottom: "u0c"
top: "u0c"
}
layer {
name: "conv_u0c-d_New"
type: "Convolution"
bottom: "u0c"
top: "u0d"
param {
lr_mult: 1
decay_mult: 1
}
param {
lr_mult: 2
decay_mult: 0
}
convolution_param {
num_output: 64
pad: 1
kernel_size: 3
weight_filler {
type: "msra"
}
}
}
layer {
name: "relu_u0d"
type: "ReLU"
bottom: "u0d"
top: "u0d"
}
layer {
name: "conv_u0d-score_New"
type: "Convolution"
bottom: "u0d"
top: "score"
param {
lr_mult: 1
decay_mult: 1
}
param {
lr_mult: 2
decay_mult: 0
}
convolution_param {
num_output: 2
pad: 0
kernel_size: 1
weight_filler {
type: "msra"
}
}
}
layer {
name: "loss"
type: "SoftmaxWithLoss"
bottom: "score"
bottom: "label"
top: "loss"
loss_param {
ignore_label: 255
normalize: true
}
}
I0117 15:36:55.653879  6628 layer_factory.cpp:58] Creating layer data
I0117 15:36:55.653879  6628 common.cpp:36] System entropy source not available, using fallback algorithm to generate seed instead.
I0117 15:36:55.653879  6628 net.cpp:100] Creating Layer data
I0117 15:36:55.653879  6628 net.cpp:408] data -> data
I0117 15:36:55.654880  7656 common.cpp:36] System entropy source not available, using fallback algorithm to generate seed instead.
I0117 15:36:55.656879  7656 db_lmdb.cpp:40] Opened lmdb C:/Projects/digits/digits/jobs/20190117-002215-7760/train_db/features
I0117 15:36:55.674880  6628 data_layer.cpp:41] output data size: 64,1,128,128
I0117 15:36:55.680879  6628 net.cpp:150] Setting up data
I0117 15:36:55.680879  6628 net.cpp:157] Top shape: 64 1 128 128 (1048576)
I0117 15:36:55.680879  6628 net.cpp:165] Memory required for data: 4194304
I0117 15:36:55.680879  6628 layer_factory.cpp:58] Creating layer label
I0117 15:36:55.680879  6628 net.cpp:100] Creating Layer label
I0117 15:36:55.680879  6628 net.cpp:408] label -> label
I0117 15:36:55.680879  6572 common.cpp:36] System entropy source not available, using fallback algorithm to generate seed instead.
I0117 15:36:55.681879  8404 common.cpp:36] System entropy source not available, using fallback algorithm to generate seed instead.
I0117 15:36:55.683879  8404 db_lmdb.cpp:40] Opened lmdb C:/Projects/digits/digits/jobs/20190117-002215-7760/train_db/labels
I0117 15:36:55.683879  6628 data_layer.cpp:41] output data size: 64,1,128,128
I0117 15:36:55.689879  6628 net.cpp:150] Setting up label
I0117 15:36:55.689879  6628 net.cpp:157] Top shape: 64 1 128 128 (1048576)
I0117 15:36:55.689879  6628 net.cpp:165] Memory required for data: 8388608
I0117 15:36:55.689879  6628 layer_factory.cpp:58] Creating layer conv_d0a-b
I0117 15:36:55.689879  6628 net.cpp:100] Creating Layer conv_d0a-b
I0117 15:36:55.689879  6628 net.cpp:434] conv_d0a-b <- data
I0117 15:36:55.689879  6628 net.cpp:408] conv_d0a-b -> d0b
I0117 15:36:55.690879  6000 common.cpp:36] System entropy source not available, using fallback algorithm to generate seed instead.
I0117 15:36:55.873879  6628 net.cpp:150] Setting up conv_d0a-b
I0117 15:36:55.873879  6628 net.cpp:157] Top shape: 64 64 128 128 (67108864)
I0117 15:36:55.873879  6628 net.cpp:165] Memory required for data: 276824064
I0117 15:36:55.874879  6628 layer_factory.cpp:58] Creating layer relu_d0b
I0117 15:36:55.874879  6628 net.cpp:100] Creating Layer relu_d0b
I0117 15:36:55.874879  6628 net.cpp:434] relu_d0b <- d0b
I0117 15:36:55.874879  6628 net.cpp:395] relu_d0b -> d0b (in-place)
I0117 15:36:55.874879  6628 net.cpp:150] Setting up relu_d0b
I0117 15:36:55.874879  6628 net.cpp:157] Top shape: 64 64 128 128 (67108864)
I0117 15:36:55.874879  6628 net.cpp:165] Memory required for data: 545259520
I0117 15:36:55.874879  6628 layer_factory.cpp:58] Creating layer conv_d0b-c
I0117 15:36:55.874879  6628 net.cpp:100] Creating Layer conv_d0b-c
I0117 15:36:55.874879  6628 net.cpp:434] conv_d0b-c <- d0b
I0117 15:36:55.874879  6628 net.cpp:408] conv_d0b-c -> d0c
I0117 15:36:55.876879  6628 net.cpp:150] Setting up conv_d0b-c
I0117 15:36:55.876879  6628 net.cpp:157] Top shape: 64 64 128 128 (67108864)
I0117 15:36:55.876879  6628 net.cpp:165] Memory required for data: 813694976
I0117 15:36:55.876879  6628 layer_factory.cpp:58] Creating layer relu_d0c
I0117 15:36:55.876879  6628 net.cpp:100] Creating Layer relu_d0c
I0117 15:36:55.876879  6628 net.cpp:434] relu_d0c <- d0c
I0117 15:36:55.876879  6628 net.cpp:395] relu_d0c -> d0c (in-place)
I0117 15:36:55.876879  6628 net.cpp:150] Setting up relu_d0c
I0117 15:36:55.876879  6628 net.cpp:157] Top shape: 64 64 128 128 (67108864)
I0117 15:36:55.876879  6628 net.cpp:165] Memory required for data: 1082130432
I0117 15:36:55.876879  6628 layer_factory.cpp:58] Creating layer d0c_relu_d0c_0_split
I0117 15:36:55.876879  6628 net.cpp:100] Creating Layer d0c_relu_d0c_0_split
I0117 15:36:55.876879  6628 net.cpp:434] d0c_relu_d0c_0_split <- d0c
I0117 15:36:55.876879  6628 net.cpp:408] d0c_relu_d0c_0_split -> d0c_relu_d0c_0_split_0
I0117 15:36:55.876879  6628 net.cpp:408] d0c_relu_d0c_0_split -> d0c_relu_d0c_0_split_1
I0117 15:36:55.876879  6628 net.cpp:150] Setting up d0c_relu_d0c_0_split
I0117 15:36:55.876879  6628 net.cpp:157] Top shape: 64 64 128 128 (67108864)
I0117 15:36:55.876879  6628 net.cpp:157] Top shape: 64 64 128 128 (67108864)
I0117 15:36:55.876879  6628 net.cpp:165] Memory required for data: 1619001344
I0117 15:36:55.876879  6628 layer_factory.cpp:58] Creating layer pool_d0c-1a
I0117 15:36:55.876879  6628 net.cpp:100] Creating Layer pool_d0c-1a
I0117 15:36:55.876879  6628 net.cpp:434] pool_d0c-1a <- d0c_relu_d0c_0_split_0
I0117 15:36:55.876879  6628 net.cpp:408] pool_d0c-1a -> d1a
I0117 15:36:55.876879  6628 net.cpp:150] Setting up pool_d0c-1a
I0117 15:36:55.876879  6628 net.cpp:157] Top shape: 64 64 64 64 (16777216)
I0117 15:36:55.876879  6628 net.cpp:165] Memory required for data: 1686110208
I0117 15:36:55.876879  6628 layer_factory.cpp:58] Creating layer conv_d1a-b
I0117 15:36:55.876879  6628 net.cpp:100] Creating Layer conv_d1a-b
I0117 15:36:55.876879  6628 net.cpp:434] conv_d1a-b <- d1a
I0117 15:36:55.876879  6628 net.cpp:408] conv_d1a-b -> d1b
I0117 15:36:55.878880  6628 net.cpp:150] Setting up conv_d1a-b
I0117 15:36:55.878880  6628 net.cpp:157] Top shape: 64 128 64 64 (33554432)
I0117 15:36:55.878880  6628 net.cpp:165] Memory required for data: 1820327936
I0117 15:36:55.878880  6628 layer_factory.cpp:58] Creating layer relu_d1b
I0117 15:36:55.878880  6628 net.cpp:100] Creating Layer relu_d1b
I0117 15:36:55.878880  6628 net.cpp:434] relu_d1b <- d1b
I0117 15:36:55.878880  6628 net.cpp:395] relu_d1b -> d1b (in-place)
I0117 15:36:55.879879  6628 net.cpp:150] Setting up relu_d1b
I0117 15:36:55.879879  6628 net.cpp:157] Top shape: 64 128 64 64 (33554432)
I0117 15:36:55.879879  6628 net.cpp:165] Memory required for data: 1954545664
I0117 15:36:55.879879  6628 layer_factory.cpp:58] Creating layer conv_d1b-c
I0117 15:36:55.879879  6628 net.cpp:100] Creating Layer conv_d1b-c
I0117 15:36:55.879879  6628 net.cpp:434] conv_d1b-c <- d1b
I0117 15:36:55.879879  6628 net.cpp:408] conv_d1b-c -> d1c
I0117 15:36:55.881880  6628 net.cpp:150] Setting up conv_d1b-c
I0117 15:36:55.881880  6628 net.cpp:157] Top shape: 64 128 64 64 (33554432)
I0117 15:36:55.881880  6628 net.cpp:165] Memory required for data: 2088763392
I0117 15:36:55.881880  6628 layer_factory.cpp:58] Creating layer relu_d1c
I0117 15:36:55.881880  6628 net.cpp:100] Creating Layer relu_d1c
I0117 15:36:55.881880  6628 net.cpp:434] relu_d1c <- d1c
I0117 15:36:55.881880  6628 net.cpp:395] relu_d1c -> d1c (in-place)
I0117 15:36:55.881880  6628 net.cpp:150] Setting up relu_d1c
I0117 15:36:55.881880  6628 net.cpp:157] Top shape: 64 128 64 64 (33554432)
I0117 15:36:55.881880  6628 net.cpp:165] Memory required for data: 2222981120
I0117 15:36:55.881880  6628 layer_factory.cpp:58] Creating layer d1c_relu_d1c_0_split
I0117 15:36:55.881880  6628 net.cpp:100] Creating Layer d1c_relu_d1c_0_split
I0117 15:36:55.881880  6628 net.cpp:434] d1c_relu_d1c_0_split <- d1c
I0117 15:36:55.881880  6628 net.cpp:408] d1c_relu_d1c_0_split -> d1c_relu_d1c_0_split_0
I0117 15:36:55.881880  6628 net.cpp:408] d1c_relu_d1c_0_split -> d1c_relu_d1c_0_split_1
I0117 15:36:55.881880  6628 net.cpp:150] Setting up d1c_relu_d1c_0_split
I0117 15:36:55.881880  6628 net.cpp:157] Top shape: 64 128 64 64 (33554432)
I0117 15:36:55.881880  6628 net.cpp:157] Top shape: 64 128 64 64 (33554432)
I0117 15:36:55.881880  6628 net.cpp:165] Memory required for data: 2491416576
I0117 15:36:55.881880  6628 layer_factory.cpp:58] Creating layer pool_d1c-2a
I0117 15:36:55.881880  6628 net.cpp:100] Creating Layer pool_d1c-2a
I0117 15:36:55.881880  6628 net.cpp:434] pool_d1c-2a <- d1c_relu_d1c_0_split_0
I0117 15:36:55.881880  6628 net.cpp:408] pool_d1c-2a -> d2a
I0117 15:36:55.881880  6628 net.cpp:150] Setting up pool_d1c-2a
I0117 15:36:55.881880  6628 net.cpp:157] Top shape: 64 128 32 32 (8388608)
I0117 15:36:55.881880  6628 net.cpp:165] Memory required for data: 2524971008
I0117 15:36:55.881880  6628 layer_factory.cpp:58] Creating layer conv_d2a-b
I0117 15:36:55.881880  6628 net.cpp:100] Creating Layer conv_d2a-b
I0117 15:36:55.881880  6628 net.cpp:434] conv_d2a-b <- d2a
I0117 15:36:55.881880  6628 net.cpp:408] conv_d2a-b -> d2b
I0117 15:36:55.886879  6628 net.cpp:150] Setting up conv_d2a-b
I0117 15:36:55.886879  6628 net.cpp:157] Top shape: 64 256 32 32 (16777216)
I0117 15:36:55.886879  6628 net.cpp:165] Memory required for data: 2592079872
I0117 15:36:55.886879  6628 layer_factory.cpp:58] Creating layer relu_d2b
I0117 15:36:55.886879  6628 net.cpp:100] Creating Layer relu_d2b
I0117 15:36:55.886879  6628 net.cpp:434] relu_d2b <- d2b
I0117 15:36:55.886879  6628 net.cpp:395] relu_d2b -> d2b (in-place)
I0117 15:36:55.886879  6628 net.cpp:150] Setting up relu_d2b
I0117 15:36:55.886879  6628 net.cpp:157] Top shape: 64 256 32 32 (16777216)
I0117 15:36:55.886879  6628 net.cpp:165] Memory required for data: 2659188736
I0117 15:36:55.886879  6628 layer_factory.cpp:58] Creating layer conv_d2b-c
I0117 15:36:55.886879  6628 net.cpp:100] Creating Layer conv_d2b-c
I0117 15:36:55.886879  6628 net.cpp:434] conv_d2b-c <- d2b
I0117 15:36:55.886879  6628 net.cpp:408] conv_d2b-c -> d2c
I0117 15:36:55.893879  6628 net.cpp:150] Setting up conv_d2b-c
I0117 15:36:55.893879  6628 net.cpp:157] Top shape: 64 256 32 32 (16777216)
I0117 15:36:55.893879  6628 net.cpp:165] Memory required for data: 2726297600
I0117 15:36:55.893879  6628 layer_factory.cpp:58] Creating layer relu_d2c
I0117 15:36:55.893879  6628 net.cpp:100] Creating Layer relu_d2c
I0117 15:36:55.893879  6628 net.cpp:434] relu_d2c <- d2c
I0117 15:36:55.893879  6628 net.cpp:395] relu_d2c -> d2c (in-place)
I0117 15:36:55.893879  6628 net.cpp:150] Setting up relu_d2c
I0117 15:36:55.893879  6628 net.cpp:157] Top shape: 64 256 32 32 (16777216)
I0117 15:36:55.893879  6628 net.cpp:165] Memory required for data: 2793406464
I0117 15:36:55.893879  6628 layer_factory.cpp:58] Creating layer d2c_relu_d2c_0_split
I0117 15:36:55.893879  6628 net.cpp:100] Creating Layer d2c_relu_d2c_0_split
I0117 15:36:55.893879  6628 net.cpp:434] d2c_relu_d2c_0_split <- d2c
I0117 15:36:55.893879  6628 net.cpp:408] d2c_relu_d2c_0_split -> d2c_relu_d2c_0_split_0
I0117 15:36:55.893879  6628 net.cpp:408] d2c_relu_d2c_0_split -> d2c_relu_d2c_0_split_1
I0117 15:36:55.893879  6628 net.cpp:150] Setting up d2c_relu_d2c_0_split
I0117 15:36:55.893879  6628 net.cpp:157] Top shape: 64 256 32 32 (16777216)
I0117 15:36:55.893879  6628 net.cpp:157] Top shape: 64 256 32 32 (16777216)
I0117 15:36:55.893879  6628 net.cpp:165] Memory required for data: 2927624192
I0117 15:36:55.893879  6628 layer_factory.cpp:58] Creating layer pool_d2c-3a
I0117 15:36:55.893879  6628 net.cpp:100] Creating Layer pool_d2c-3a
I0117 15:36:55.893879  6628 net.cpp:434] pool_d2c-3a <- d2c_relu_d2c_0_split_0
I0117 15:36:55.893879  6628 net.cpp:408] pool_d2c-3a -> d3a
I0117 15:36:55.893879  6628 net.cpp:150] Setting up pool_d2c-3a
I0117 15:36:55.893879  6628 net.cpp:157] Top shape: 64 256 16 16 (4194304)
I0117 15:36:55.894879  6628 net.cpp:165] Memory required for data: 2944401408
I0117 15:36:55.894879  6628 layer_factory.cpp:58] Creating layer conv_d3a-b
I0117 15:36:55.894879  6628 net.cpp:100] Creating Layer conv_d3a-b
I0117 15:36:55.894879  6628 net.cpp:434] conv_d3a-b <- d3a
I0117 15:36:55.894879  6628 net.cpp:408] conv_d3a-b -> d3b
I0117 15:36:55.907879  6628 net.cpp:150] Setting up conv_d3a-b
I0117 15:36:55.907879  6628 net.cpp:157] Top shape: 64 512 16 16 (8388608)
I0117 15:36:55.907879  6628 net.cpp:165] Memory required for data: 2977955840
I0117 15:36:55.907879  6628 layer_factory.cpp:58] Creating layer relu_d3b
I0117 15:36:55.907879  6628 net.cpp:100] Creating Layer relu_d3b
I0117 15:36:55.907879  6628 net.cpp:434] relu_d3b <- d3b
I0117 15:36:55.907879  6628 net.cpp:395] relu_d3b -> d3b (in-place)
I0117 15:36:55.907879  6628 net.cpp:150] Setting up relu_d3b
I0117 15:36:55.907879  6628 net.cpp:157] Top shape: 64 512 16 16 (8388608)
I0117 15:36:55.907879  6628 net.cpp:165] Memory required for data: 3011510272
I0117 15:36:55.907879  6628 layer_factory.cpp:58] Creating layer conv_d3b-c
I0117 15:36:55.907879  6628 net.cpp:100] Creating Layer conv_d3b-c
I0117 15:36:55.907879  6628 net.cpp:434] conv_d3b-c <- d3b
I0117 15:36:55.907879  6628 net.cpp:408] conv_d3b-c -> d3c
I0117 15:36:55.928879  6628 net.cpp:150] Setting up conv_d3b-c
I0117 15:36:55.928879  6628 net.cpp:157] Top shape: 64 512 16 16 (8388608)
I0117 15:36:55.928879  6628 net.cpp:165] Memory required for data: 3045064704
I0117 15:36:55.928879  6628 layer_factory.cpp:58] Creating layer relu_d3c
I0117 15:36:55.929879  6628 net.cpp:100] Creating Layer relu_d3c
I0117 15:36:55.929879  6628 net.cpp:434] relu_d3c <- d3c
I0117 15:36:55.929879  6628 net.cpp:395] relu_d3c -> d3c (in-place)
I0117 15:36:55.929879  6628 net.cpp:150] Setting up relu_d3c
I0117 15:36:55.929879  6628 net.cpp:157] Top shape: 64 512 16 16 (8388608)
I0117 15:36:55.929879  6628 net.cpp:165] Memory required for data: 3078619136
I0117 15:36:55.929879  6628 layer_factory.cpp:58] Creating layer upconv_d3c_u2a
I0117 15:36:55.929879  6628 net.cpp:100] Creating Layer upconv_d3c_u2a
I0117 15:36:55.929879  6628 net.cpp:434] upconv_d3c_u2a <- d3c
I0117 15:36:55.929879  6628 net.cpp:408] upconv_d3c_u2a -> u2a
I0117 15:36:55.933879  6628 net.cpp:150] Setting up upconv_d3c_u2a
I0117 15:36:55.933879  6628 net.cpp:157] Top shape: 64 256 32 32 (16777216)
I0117 15:36:55.933879  6628 net.cpp:165] Memory required for data: 3145728000
I0117 15:36:55.933879  6628 layer_factory.cpp:58] Creating layer relu_u2a
I0117 15:36:55.933879  6628 net.cpp:100] Creating Layer relu_u2a
I0117 15:36:55.933879  6628 net.cpp:434] relu_u2a <- u2a
I0117 15:36:55.933879  6628 net.cpp:395] relu_u2a -> u2a (in-place)
I0117 15:36:55.934880  6628 net.cpp:150] Setting up relu_u2a
I0117 15:36:55.934880  6628 net.cpp:157] Top shape: 64 256 32 32 (16777216)
I0117 15:36:55.934880  6628 net.cpp:165] Memory required for data: 3212836864
I0117 15:36:55.934880  6628 layer_factory.cpp:58] Creating layer concat_d2cc_u2a-b
I0117 15:36:55.934880  6628 net.cpp:100] Creating Layer concat_d2cc_u2a-b
I0117 15:36:55.934880  6628 net.cpp:434] concat_d2cc_u2a-b <- u2a
I0117 15:36:55.934880  6628 net.cpp:434] concat_d2cc_u2a-b <- d2c_relu_d2c_0_split_1
I0117 15:36:55.934880  6628 net.cpp:408] concat_d2cc_u2a-b -> u2b
I0117 15:36:55.934880  6628 net.cpp:150] Setting up concat_d2cc_u2a-b
I0117 15:36:55.934880  6628 net.cpp:157] Top shape: 64 512 32 32 (33554432)
I0117 15:36:55.934880  6628 net.cpp:165] Memory required for data: 3347054592
I0117 15:36:55.934880  6628 layer_factory.cpp:58] Creating layer conv_u2b-c
I0117 15:36:55.934880  6628 net.cpp:100] Creating Layer conv_u2b-c
I0117 15:36:55.934880  6628 net.cpp:434] conv_u2b-c <- u2b
I0117 15:36:55.934880  6628 net.cpp:408] conv_u2b-c -> u2c
I0117 15:36:55.947880  6628 net.cpp:150] Setting up conv_u2b-c
I0117 15:36:55.947880  6628 net.cpp:157] Top shape: 64 256 32 32 (16777216)
I0117 15:36:55.947880  6628 net.cpp:165] Memory required for data: 3414163456
I0117 15:36:55.947880  6628 layer_factory.cpp:58] Creating layer relu_u2c
I0117 15:36:55.947880  6628 net.cpp:100] Creating Layer relu_u2c
I0117 15:36:55.947880  6628 net.cpp:434] relu_u2c <- u2c
I0117 15:36:55.947880  6628 net.cpp:395] relu_u2c -> u2c (in-place)
I0117 15:36:55.947880  6628 net.cpp:150] Setting up relu_u2c
I0117 15:36:55.947880  6628 net.cpp:157] Top shape: 64 256 32 32 (16777216)
I0117 15:36:55.947880  6628 net.cpp:165] Memory required for data: 3481272320
I0117 15:36:55.947880  6628 layer_factory.cpp:58] Creating layer conv_u2c-d
I0117 15:36:55.947880  6628 net.cpp:100] Creating Layer conv_u2c-d
I0117 15:36:55.947880  6628 net.cpp:434] conv_u2c-d <- u2c
I0117 15:36:55.947880  6628 net.cpp:408] conv_u2c-d -> u2d
I0117 15:36:55.954879  6628 net.cpp:150] Setting up conv_u2c-d
I0117 15:36:55.955879  6628 net.cpp:157] Top shape: 64 256 32 32 (16777216)
I0117 15:36:55.955879  6628 net.cpp:165] Memory required for data: 3548381184
I0117 15:36:55.955879  6628 layer_factory.cpp:58] Creating layer relu_u2d
I0117 15:36:55.955879  6628 net.cpp:100] Creating Layer relu_u2d
I0117 15:36:55.955879  6628 net.cpp:434] relu_u2d <- u2d
I0117 15:36:55.955879  6628 net.cpp:395] relu_u2d -> u2d (in-place)
I0117 15:36:55.955879  6628 net.cpp:150] Setting up relu_u2d
I0117 15:36:55.955879  6628 net.cpp:157] Top shape: 64 256 32 32 (16777216)
I0117 15:36:55.955879  6628 net.cpp:165] Memory required for data: 3615490048
I0117 15:36:55.955879  6628 layer_factory.cpp:58] Creating layer upconv_u2d_u1a
I0117 15:36:55.955879  6628 net.cpp:100] Creating Layer upconv_u2d_u1a
I0117 15:36:55.955879  6628 net.cpp:434] upconv_u2d_u1a <- u2d
I0117 15:36:55.955879  6628 net.cpp:408] upconv_u2d_u1a -> u1a
I0117 15:36:55.956879  6628 net.cpp:150] Setting up upconv_u2d_u1a
I0117 15:36:55.956879  6628 net.cpp:157] Top shape: 64 128 64 64 (33554432)
I0117 15:36:55.956879  6628 net.cpp:165] Memory required for data: 3749707776
I0117 15:36:55.956879  6628 layer_factory.cpp:58] Creating layer relu_u1a
I0117 15:36:55.956879  6628 net.cpp:100] Creating Layer relu_u1a
I0117 15:36:55.956879  6628 net.cpp:434] relu_u1a <- u1a
I0117 15:36:55.956879  6628 net.cpp:395] relu_u1a -> u1a (in-place)
I0117 15:36:55.957880  6628 net.cpp:150] Setting up relu_u1a
I0117 15:36:55.957880  6628 net.cpp:157] Top shape: 64 128 64 64 (33554432)
I0117 15:36:55.957880  6628 net.cpp:165] Memory required for data: 3883925504
I0117 15:36:55.957880  6628 layer_factory.cpp:58] Creating layer concat_d1cc_u1a-b
I0117 15:36:55.957880  6628 net.cpp:100] Creating Layer concat_d1cc_u1a-b
I0117 15:36:55.957880  6628 net.cpp:434] concat_d1cc_u1a-b <- u1a
I0117 15:36:55.957880  6628 net.cpp:434] concat_d1cc_u1a-b <- d1c_relu_d1c_0_split_1
I0117 15:36:55.957880  6628 net.cpp:408] concat_d1cc_u1a-b -> u1b
I0117 15:36:55.957880  6628 net.cpp:150] Setting up concat_d1cc_u1a-b
I0117 15:36:55.957880  6628 net.cpp:157] Top shape: 64 256 64 64 (67108864)
I0117 15:36:55.957880  6628 net.cpp:165] Memory required for data: 4152360960
I0117 15:36:55.957880  6628 layer_factory.cpp:58] Creating layer conv_u1b-c
I0117 15:36:55.957880  6628 net.cpp:100] Creating Layer conv_u1b-c
I0117 15:36:55.957880  6628 net.cpp:434] conv_u1b-c <- u1b
I0117 15:36:55.957880  6628 net.cpp:408] conv_u1b-c -> u1c
I0117 15:36:55.961879  6628 net.cpp:150] Setting up conv_u1b-c
I0117 15:36:55.961879  6628 net.cpp:157] Top shape: 64 128 64 64 (33554432)
I0117 15:36:55.961879  6628 net.cpp:165] Memory required for data: 4286578688
I0117 15:36:55.961879  6628 layer_factory.cpp:58] Creating layer relu_u1c
I0117 15:36:55.961879  6628 net.cpp:100] Creating Layer relu_u1c
I0117 15:36:55.961879  6628 net.cpp:434] relu_u1c <- u1c
I0117 15:36:55.961879  6628 net.cpp:395] relu_u1c -> u1c (in-place)
I0117 15:36:55.961879  6628 net.cpp:150] Setting up relu_u1c
I0117 15:36:55.961879  6628 net.cpp:157] Top shape: 64 128 64 64 (33554432)
I0117 15:36:55.961879  6628 net.cpp:165] Memory required for data: 4420796416
I0117 15:36:55.961879  6628 layer_factory.cpp:58] Creating layer conv_u1c-d
I0117 15:36:55.961879  6628 net.cpp:100] Creating Layer conv_u1c-d
I0117 15:36:55.961879  6628 net.cpp:434] conv_u1c-d <- u1c
I0117 15:36:55.961879  6628 net.cpp:408] conv_u1c-d -> u1d
I0117 15:36:55.964879  6628 net.cpp:150] Setting up conv_u1c-d
I0117 15:36:55.964879  6628 net.cpp:157] Top shape: 64 128 64 64 (33554432)
I0117 15:36:55.964879  6628 net.cpp:165] Memory required for data: 4555014144
I0117 15:36:55.964879  6628 layer_factory.cpp:58] Creating layer relu_u1d
I0117 15:36:55.964879  6628 net.cpp:100] Creating Layer relu_u1d
I0117 15:36:55.964879  6628 net.cpp:434] relu_u1d <- u1d
I0117 15:36:55.964879  6628 net.cpp:395] relu_u1d -> u1d (in-place)
I0117 15:36:55.965879  6628 net.cpp:150] Setting up relu_u1d
I0117 15:36:55.965879  6628 net.cpp:157] Top shape: 64 128 64 64 (33554432)
I0117 15:36:55.965879  6628 net.cpp:165] Memory required for data: 4689231872
I0117 15:36:55.965879  6628 layer_factory.cpp:58] Creating layer upconv_u1d_u0a_NEW
I0117 15:36:55.965879  6628 net.cpp:100] Creating Layer upconv_u1d_u0a_NEW
I0117 15:36:55.965879  6628 net.cpp:434] upconv_u1d_u0a_NEW <- u1d
I0117 15:36:55.965879  6628 net.cpp:408] upconv_u1d_u0a_NEW -> u0a
I0117 15:36:55.965879  6628 net.cpp:150] Setting up upconv_u1d_u0a_NEW
I0117 15:36:55.965879  6628 net.cpp:157] Top shape: 64 64 128 128 (67108864)
I0117 15:36:55.965879  6628 net.cpp:165] Memory required for data: 4957667328
I0117 15:36:55.965879  6628 layer_factory.cpp:58] Creating layer relu_u0a
I0117 15:36:55.965879  6628 net.cpp:100] Creating Layer relu_u0a
I0117 15:36:55.965879  6628 net.cpp:434] relu_u0a <- u0a
I0117 15:36:55.965879  6628 net.cpp:395] relu_u0a -> u0a (in-place)
I0117 15:36:55.965879  6628 net.cpp:150] Setting up relu_u0a
I0117 15:36:55.965879  6628 net.cpp:157] Top shape: 64 64 128 128 (67108864)
I0117 15:36:55.965879  6628 net.cpp:165] Memory required for data: 5226102784
I0117 15:36:55.965879  6628 layer_factory.cpp:58] Creating layer concat_d0cc_u0a-b
I0117 15:36:55.965879  6628 net.cpp:100] Creating Layer concat_d0cc_u0a-b
I0117 15:36:55.965879  6628 net.cpp:434] concat_d0cc_u0a-b <- u0a
I0117 15:36:55.965879  6628 net.cpp:434] concat_d0cc_u0a-b <- d0c_relu_d0c_0_split_1
I0117 15:36:55.965879  6628 net.cpp:408] concat_d0cc_u0a-b -> u0b
I0117 15:36:55.965879  6628 net.cpp:150] Setting up concat_d0cc_u0a-b
I0117 15:36:55.965879  6628 net.cpp:157] Top shape: 64 128 128 128 (134217728)
I0117 15:36:55.965879  6628 net.cpp:165] Memory required for data: 5762973696
I0117 15:36:55.965879  6628 layer_factory.cpp:58] Creating layer conv_u0b-c_New
I0117 15:36:55.965879  6628 net.cpp:100] Creating Layer conv_u0b-c_New
I0117 15:36:55.965879  6628 net.cpp:434] conv_u0b-c_New <- u0b
I0117 15:36:55.965879  6628 net.cpp:408] conv_u0b-c_New -> u0c
I0117 15:36:55.967880  6628 net.cpp:150] Setting up conv_u0b-c_New
I0117 15:36:55.967880  6628 net.cpp:157] Top shape: 64 64 128 128 (67108864)
I0117 15:36:55.967880  6628 net.cpp:165] Memory required for data: 6031409152
I0117 15:36:55.967880  6628 layer_factory.cpp:58] Creating layer relu_u0c
I0117 15:36:55.967880  6628 net.cpp:100] Creating Layer relu_u0c
I0117 15:36:55.967880  6628 net.cpp:434] relu_u0c <- u0c
I0117 15:36:55.967880  6628 net.cpp:395] relu_u0c -> u0c (in-place)
I0117 15:36:55.968879  6628 net.cpp:150] Setting up relu_u0c
I0117 15:36:55.968879  6628 net.cpp:157] Top shape: 64 64 128 128 (67108864)
I0117 15:36:55.968879  6628 net.cpp:165] Memory required for data: 6299844608
I0117 15:36:55.968879  6628 layer_factory.cpp:58] Creating layer conv_u0c-d_New
I0117 15:36:55.968879  6628 net.cpp:100] Creating Layer conv_u0c-d_New
I0117 15:36:55.968879  6628 net.cpp:434] conv_u0c-d_New <- u0c
I0117 15:36:55.968879  6628 net.cpp:408] conv_u0c-d_New -> u0d
I0117 15:36:55.969879  6628 net.cpp:150] Setting up conv_u0c-d_New
I0117 15:36:55.969879  6628 net.cpp:157] Top shape: 64 64 128 128 (67108864)
I0117 15:36:55.969879  6628 net.cpp:165] Memory required for data: 6568280064
I0117 15:36:55.969879  6628 layer_factory.cpp:58] Creating layer relu_u0d
I0117 15:36:55.969879  6628 net.cpp:100] Creating Layer relu_u0d
I0117 15:36:55.969879  6628 net.cpp:434] relu_u0d <- u0d
I0117 15:36:55.969879  6628 net.cpp:395] relu_u0d -> u0d (in-place)
I0117 15:36:55.970880  6628 net.cpp:150] Setting up relu_u0d
I0117 15:36:55.970880  6628 net.cpp:157] Top shape: 64 64 128 128 (67108864)
I0117 15:36:55.970880  6628 net.cpp:165] Memory required for data: 6836715520
I0117 15:36:55.970880  6628 layer_factory.cpp:58] Creating layer conv_u0d-score_New
I0117 15:36:55.970880  6628 net.cpp:100] Creating Layer conv_u0d-score_New
I0117 15:36:55.970880  6628 net.cpp:434] conv_u0d-score_New <- u0d
I0117 15:36:55.970880  6628 net.cpp:408] conv_u0d-score_New -> score
I0117 15:36:55.971879  6628 net.cpp:150] Setting up conv_u0d-score_New
I0117 15:36:55.971879  6628 net.cpp:157] Top shape: 64 2 128 128 (2097152)
I0117 15:36:55.971879  6628 net.cpp:165] Memory required for data: 6845104128
I0117 15:36:55.971879  6628 layer_factory.cpp:58] Creating layer loss
I0117 15:36:55.971879  6628 net.cpp:100] Creating Layer loss
I0117 15:36:55.971879  6628 net.cpp:434] loss <- score
I0117 15:36:55.971879  6628 net.cpp:434] loss <- label
I0117 15:36:55.971879  6628 net.cpp:408] loss -> loss
I0117 15:36:55.971879  6628 layer_factory.cpp:58] Creating layer loss
…
I0117 15:36:55.974879  6628 net.cpp:322] The NetState phase (1) differed from the phase (0) specified by a rule in layer label
I0117 15:36:55.974879  6628 net.cpp:58] Initializing net from parameters:
state {
phase: TEST
}
layer {
name: "data"
type: "Data"
top: "data"
include {
phase: TEST
}
transform_param {
mean_value: 139.81091
}
data_param {
source: "C:/Projects/digits/digits/jobs/20190117-002215-7760/val_db/features"
batch_size: 64
backend: LMDB
}
}
layer {
name: "label"
type: "Data"
top: "label"
include {
phase: TEST
}
data_param {
source: "C:/Projects/digits/digits/jobs/20190117-002215-7760/val_db/labels"
batch_size: 64
backend: LMDB
}
}
layer {
name: "conv_d0a-b"
type: "Convolution"
bottom: "data"
top: "d0b"
param {
lr_mult: 1
decay_mult: 1
}
param {
lr_mult: 2
decay_mult: 0
}
convolution_param {
num_output: 64
pad: 1
kernel_size: 3
stride: 1
weight_filler {
type: "msra"
}
}
}
layer {
name: "relu_d0b"
type: "ReLU"
bottom: "d0b"
top: "d0b"
}
layer {
name: "conv_d0b-c"
type: "Convolution"
bottom: "d0b"
top: "d0c"
param {
lr_mult: 1
decay_mult: 1
}
param {
lr_mult: 2
decay_mult: 0
}
convolution_param {
num_output: 64
pad: 1
kernel_size: 3
weight_filler {
type: "msra"
}
}
}
layer {
name: "relu_d0c"
type: "ReLU"
bottom: "d0c"
top: "d0c"
}
layer {
name: "pool_d0c-1a"
type: "Pooling"
bottom: "d0c"
top: "d1a"
pooling_param {
pool: MAX
kernel_size: 2
stride: 2
}
}
layer {
name: "conv_d1a-b"
type: "Convolution"
bottom: "d1a"
top: "d1b"
param {
lr_mult: 1
decay_mult: 1
}
param {
lr_mult: 2
decay_mult: 0
}
convolution_param {
num_output: 128
pad: 1
kernel_size: 3
weight_filler {
type: "msra"
}
}
}
layer {
name: "relu_d1b"
type: "ReLU"
bottom: "d1b"
top: "d1b"
}
layer {
name: "conv_d1b-c"
type: "Convolution"
bottom: "d1b"
top: "d1c"
param {
lr_mult: 1
decay_mult: 1
}
param {
lr_mult: 2
decay_mult: 0
}
convolution_param {
num_output: 128
pad: 1
kernel_size: 3
weight_filler {
type: "msra"
}
}
}
layer {
name: "relu_d1c"
type: "ReLU"
bottom: "d1c"
top: "d1c"
}
layer {
name: "pool_d1c-2a"
type: "Pooling"
bottom: "d1c"
top: "d2a"
pooling_param {
pool: MAX
kernel_size: 2
stride: 2
}
}
layer {
name: "conv_d2a-b"
type: "Convolution"
bottom: "d2a"
top: "d2b"
param {
lr_mult: 1
decay_mult: 1
}
param {
lr_mult: 2
decay_mult: 0
}
convolution_param {
num_output: 256
pad: 1
kernel_size: 3
weight_filler {
type: "msra"
}
}
}
layer {
name: "relu_d2b"
type: "ReLU"
bottom: "d2b"
top: "d2b"
}
layer {
name: "conv_d2b-c"
type: "Convolution"
bottom: "d2b"
top: "d2c"
param {
lr_mult: 1
decay_mult: 1
}
param {
lr_mult: 2
decay_mult: 0
}
convolution_param {
num_output: 256
pad: 1
kernel_size: 3
weight_filler {
type: "msra"
}
}
}
layer {
name: "relu_d2c"
type: "ReLU"
bottom: "d2c"
top: "d2c"
}
layer {
name: "pool_d2c-3a"
type: "Pooling"
bottom: "d2c"
top: "d3a"
pooling_param {
pool: MAX
kernel_size: 2
stride: 2
}
}
layer {
name: "conv_d3a-b"
type: "Convolution"
bottom: "d3a"
top: "d3b"
param {
lr_mult: 1
decay_mult: 1
}
param {
lr_mult: 2
decay_mult: 0
}
convolution_param {
num_output: 512
pad: 1
kernel_size: 3
weight_filler {
type: "msra"
}
}
}
layer {
name: "relu_d3b"
type: "ReLU"
bottom: "d3b"
top: "d3b"
}
layer {
name: "conv_d3b-c"
type: "Convolution"
bottom: "d3b"
top: "d3c"
param {
lr_mult: 1
decay_mult: 1
}
param {
lr_mult: 2
decay_mult: 0
}
convolution_param {
num_output: 512
pad: 1
kernel_size: 3
weight_filler {
type: "msra"
}
}
}
layer {
name: "relu_d3c"
type: "ReLU"
bottom: "d3c"
top: "d3c"
}
layer {
name: "upconv_d3c_u2a"
type: "Deconvolution"
bottom: "d3c"
top: "u2a"
param {
lr_mult: 1
decay_mult: 1
}
param {
lr_mult: 2
decay_mult: 0
}
convolution_param {
num_output: 256
pad: 0
kernel_size: 2
stride: 2
weight_filler {
type: "msra"
}
}
}
layer {
name: "relu_u2a"
type: "ReLU"
bottom: "u2a"
top: "u2a"
}
layer {
name: "concat_d2cc_u2a-b"
type: "Concat"
bottom: "u2a"
bottom: "d2c"
top: "u2b"
}
layer {
name: "conv_u2b-c"
type: "Convolution"
bottom: "u2b"
top: "u2c"
param {
lr_mult: 1
decay_mult: 1
}
param {
lr_mult: 2
decay_mult: 0
}
convolution_param {
num_output: 256
pad: 1
kernel_size: 3
weight_filler {
type: "msra"
}
}
}
layer {
name: "relu_u2c"
type: "ReLU"
bottom: "u2c"
top: "u2c"
}
layer {
name: "conv_u2c-d"
type: "Convolution"
bottom: "u2c"
top: "u2d"
param {
lr_mult: 1
decay_mult: 1
}
param {
lr_mult: 2
decay_mult: 0
}
convolution_param {
num_output: 256
pad: 1
kernel_size: 3
weight_filler {
type: "msra"
}
}
}
layer {
name: "relu_u2d"
type: "ReLU"
bottom: "u2d"
top: "u2d"
}
layer {
name: "upconv_u2d_u1a"
type: "Deconvolution"
bottom: "u2d"
top: "u1a"
param {
lr_mult: 1
decay_mult: 1
}
param {
lr_mult: 2
decay_mult: 0
}
convolution_param {
num_output: 128
pad: 0
kernel_size: 2
stride: 2
weight_filler {
type: "msra"
}
}
}
layer {
name: "relu_u1a"
type: "ReLU"
bottom: "u1a"
top: "u1a"
}
layer {
name: "concat_d1cc_u1a-b"
type: "Concat"
bottom: "u1a"
bottom: "d1c"
top: "u1b"
}
layer {
name: "conv_u1b-c"
type: "Convolution"
bottom: "u1b"
top: "u1c"
param {
lr_mult: 1
decay_mult: 1
}
param {
lr_mult: 2
decay_mult: 0
}
convolution_param {
num_output: 128
pad: 1
kernel_size: 3
weight_filler {
type: "msra"
}
}
}
layer {
name: "relu_u1c"
type: "ReLU"
bottom: "u1c"
top: "u1c"
}
layer {
name: "conv_u1c-d"
type: "Convolution"
bottom: "u1c"
top: "u1d"
param {
lr_mult: 1
decay_mult: 1
}
param {
lr_mult: 2
decay_mult: 0
}
convolution_param {
num_output: 128
pad: 1
kernel_size: 3
weight_filler {
type: "msra"
}
}
}
layer {
name: "relu_u1d"
type: "ReLU"
bottom: "u1d"
top: "u1d"
}
layer {
name: "upconv_u1d_u0a_NEW"
type: "Deconvolution"
bottom: "u1d"
top: "u0a"
param {
lr_mult: 1
decay_mult: 1
}
param {
lr_mult: 2
decay_mult: 0
}
convolution_param {
num_output: 64
pad: 0
kernel_size: 2
stride: 2
weight_filler {
type: "msra"
}
}
}
layer {
name: "relu_u0a"
type: "ReLU"
bottom: "u0a"
top: "u0a"
}
layer {
name: "concat_d0cc_u0a-b"
type: "Concat"
bottom: "u0a"
bottom: "d0c"
top: "u0b"
}
layer {
name: "conv_u0b-c_New"
type: "Convolution"
bottom: "u0b"
top: "u0c"
param {
lr_mult: 1
decay_mult: 1
}
param {
lr_mult: 2
decay_mult: 0
}
convolution_param {
num_output: 64
pad: 1
kernel_size: 3
weight_filler {
type: "msra"
}
}
}
layer {
name: "relu_u0c"
type: "ReLU"
bottom: "u0c"
top: "u0c"
}
layer {
name: "conv_u0c-d_New"
type: "Convolution"
bottom: "u0c"
top: "u0d"
param {
lr_mult: 1
decay_mult: 1
}
param {
lr_mult: 2
decay_mult: 0
}
convolution_param {
num_output: 64
pad: 1
kernel_size: 3
weight_filler {
type: "msra"
}
}
}
layer {
name: "relu_u0d"
type: "ReLU"
bottom: "u0d"
top: "u0d"
}
layer {
name: "conv_u0d-score_New"
type: "Convolution"
bottom: "u0d"
top: "score"
param {
lr_mult: 1
decay_mult: 1
}
param {
lr_mult: 2
decay_mult: 0
}
convolution_param {
num_output: 2
pad: 0
kernel_size: 1
weight_filler {
type: "msra"
}
}
}
layer {
name: "loss"
type: "SoftmaxWithLoss"
bottom: "score"
bottom: "label"
top: "loss"
loss_param {
ignore_label: 255
normalize: true
}
}
layer {
name: "accuracy"
type: "Accuracy"
bottom: "score"
bottom: "label"
top: "accuracy"
include {
phase: TEST
}
accuracy_param {
ignore_label: 255
}
}
I0117 15:36:55.978879  6628 layer_factory.cpp:58] Creating layer data
I0117 15:36:55.978879  6628 net.cpp:100] Creating Layer data
I0117 15:36:55.978879  6628 net.cpp:408] data -> data
I0117 15:36:55.978879  2352 common.cpp:36] System entropy source not available, using fallback algorithm to generate seed instead.
I0117 15:36:55.981879  2352 db_lmdb.cpp:40] Opened lmdb C:/Projects/digits/digits/jobs/20190117-002215-7760/val_db/features
I0117 15:36:55.981879  6628 data_layer.cpp:41] output data size: 64,1,128,128
I0117 15:36:55.987879  6628 net.cpp:150] Setting up data
I0117 15:36:55.987879  6628 net.cpp:157] Top shape: 64 1 128 128 (1048576)
I0117 15:36:55.987879  6628 net.cpp:165] Memory required for data: 4194304
I0117 15:36:55.987879  6628 layer_factory.cpp:58] Creating layer label
I0117 15:36:55.987879  6628 net.cpp:100] Creating Layer label
I0117 15:36:55.987879  6628 net.cpp:408] label -> label
I0117 15:36:55.987879  2432 common.cpp:36] System entropy source not available, using fallback algorithm to generate seed instead.
I0117 15:36:55.987879  4268 common.cpp:36] System entropy source not available, using fallback algorithm to generate seed instead.
I0117 15:36:55.990880  4268 db_lmdb.cpp:40] Opened lmdb C:/Projects/digits/digits/jobs/20190117-002215-7760/val_db/labels
I0117 15:36:55.990880  6628 data_layer.cpp:41] output data size: 64,1,128,128
I0117 15:36:55.996879  6628 net.cpp:150] Setting up label
I0117 15:36:55.996879  6628 net.cpp:157] Top shape: 64 1 128 128 (1048576)
I0117 15:36:55.996879  6628 net.cpp:165] Memory required for data: 8388608
I0117 15:36:55.996879  6628 layer_factory.cpp:58] Creating layer label_label_0_split
I0117 15:36:55.996879  6628 net.cpp:100] Creating Layer label_label_0_split
I0117 15:36:55.996879  6628 net.cpp:434] label_label_0_split <- label
I0117 15:36:55.996879  6628 net.cpp:408] label_label_0_split -> label_label_0_split_0
I0117 15:36:55.996879  6628 net.cpp:408] label_label_0_split -> label_label_0_split_1
I0117 15:36:55.996879  6628 net.cpp:150] Setting up label_label_0_split
I0117 15:36:55.996879  6628 net.cpp:157] Top shape: 64 1 128 128 (1048576)
I0117 15:36:55.996879  6628 net.cpp:157] Top shape: 64 1 128 128 (1048576)
I0117 15:36:55.996879  6628 net.cpp:165] Memory required for data: 16777216
I0117 15:36:55.996879  6628 layer_factory.cpp:58] Creating layer conv_d0a-b
I0117 15:36:55.996879  6628 net.cpp:100] Creating Layer conv_d0a-b
I0117 15:36:55.996879  6628 net.cpp:434] conv_d0a-b <- data
I0117 15:36:55.996879  6628 net.cpp:408] conv_d0a-b -> d0b
I0117 15:36:55.996879  3360 common.cpp:36] System entropy source not available, using fallback algorithm to generate seed instead.
I0117 15:36:55.998879  6628 net.cpp:150] Setting up conv_d0a-b
I0117 15:36:55.998879  6628 net.cpp:157] Top shape: 64 64 128 128 (67108864)
I0117 15:36:55.998879  6628 net.cpp:165] Memory required for data: 285212672
I0117 15:36:55.998879  6628 layer_factory.cpp:58] Creating layer relu_d0b
I0117 15:36:55.998879  6628 net.cpp:100] Creating Layer relu_d0b
I0117 15:36:55.998879  6628 net.cpp:434] relu_d0b <- d0b
I0117 15:36:55.998879  6628 net.cpp:395] relu_d0b -> d0b (in-place)
I0117 15:36:55.998879  6628 net.cpp:150] Setting up relu_d0b
I0117 15:36:55.998879  6628 net.cpp:157] Top shape: 64 64 128 128 (67108864)
I0117 15:36:55.998879  6628 net.cpp:165] Memory required for data: 553648128
I0117 15:36:55.998879  6628 layer_factory.cpp:58] Creating layer conv_d0b-c
I0117 15:36:55.998879  6628 net.cpp:100] Creating Layer conv_d0b-c
I0117 15:36:55.998879  6628 net.cpp:434] conv_d0b-c <- d0b
I0117 15:36:55.998879  6628 net.cpp:408] conv_d0b-c -> d0c
I0117 15:36:56.000880  6628 net.cpp:150] Setting up conv_d0b-c
I0117 15:36:56.000880  6628 net.cpp:157] Top shape: 64 64 128 128 (67108864)
I0117 15:36:56.000880  6628 net.cpp:165] Memory required for data: 822083584
I0117 15:36:56.000880  6628 layer_factory.cpp:58] Creating layer relu_d0c
I0117 15:36:56.000880  6628 net.cpp:100] Creating Layer relu_d0c
I0117 15:36:56.000880  6628 net.cpp:434] relu_d0c <- d0c
I0117 15:36:56.000880  6628 net.cpp:395] relu_d0c -> d0c (in-place)
I0117 15:36:56.000880  6628 net.cpp:150] Setting up relu_d0c
I0117 15:36:56.000880  6628 net.cpp:157] Top shape: 64 64 128 128 (67108864)
I0117 15:36:56.000880  6628 net.cpp:165] Memory required for data: 1090519040
I0117 15:36:56.000880  6628 layer_factory.cpp:58] Creating layer d0c_relu_d0c_0_split
I0117 15:36:56.000880  6628 net.cpp:100] Creating Layer d0c_relu_d0c_0_split
I0117 15:36:56.000880  6628 net.cpp:434] d0c_relu_d0c_0_split <- d0c
I0117 15:36:56.000880  6628 net.cpp:408] d0c_relu_d0c_0_split -> d0c_relu_d0c_0_split_0
I0117 15:36:56.000880  6628 net.cpp:408] d0c_relu_d0c_0_split -> d0c_relu_d0c_0_split_1
I0117 15:36:56.000880  6628 net.cpp:150] Setting up d0c_relu_d0c_0_split
I0117 15:36:56.000880  6628 net.cpp:157] Top shape: 64 64 128 128 (67108864)
I0117 15:36:56.000880  6628 net.cpp:157] Top shape: 64 64 128 128 (67108864)
I0117 15:36:56.000880  6628 net.cpp:165] Memory required for data: 1627389952
I0117 15:36:56.000880  6628 layer_factory.cpp:58] Creating layer pool_d0c-1a
I0117 15:36:56.000880  6628 net.cpp:100] Creating Layer pool_d0c-1a
I0117 15:36:56.000880  6628 net.cpp:434] pool_d0c-1a <- d0c_relu_d0c_0_split_0
I0117 15:36:56.000880  6628 net.cpp:408] pool_d0c-1a -> d1a
I0117 15:36:56.000880  6628 net.cpp:150] Setting up pool_d0c-1a
I0117 15:36:56.000880  6628 net.cpp:157] Top shape: 64 64 64 64 (16777216)
I0117 15:36:56.000880  6628 net.cpp:165] Memory required for data: 1694498816
I0117 15:36:56.000880  6628 layer_factory.cpp:58] Creating layer conv_d1a-b
I0117 15:36:56.000880  6628 net.cpp:100] Creating Layer conv_d1a-b
I0117 15:36:56.000880  6628 net.cpp:434] conv_d1a-b <- d1a
I0117 15:36:56.000880  6628 net.cpp:408] conv_d1a-b -> d1b
I0117 15:36:56.002879  6628 net.cpp:150] Setting up conv_d1a-b
I0117 15:36:56.002879  6628 net.cpp:157] Top shape: 64 128 64 64 (33554432)
I0117 15:36:56.002879  6628 net.cpp:165] Memory required for data: 1828716544
I0117 15:36:56.002879  6628 layer_factory.cpp:58] Creating layer relu_d1b
I0117 15:36:56.002879  6628 net.cpp:100] Creating Layer relu_d1b
I0117 15:36:56.002879  6628 net.cpp:434] relu_d1b <- d1b
I0117 15:36:56.002879  6628 net.cpp:395] relu_d1b -> d1b (in-place)
I0117 15:36:56.002879  6628 net.cpp:150] Setting up relu_d1b
I0117 15:36:56.002879  6628 net.cpp:157] Top shape: 64 128 64 64 (33554432)
I0117 15:36:56.002879  6628 net.cpp:165] Memory required for data: 1962934272
I0117 15:36:56.002879  6628 layer_factory.cpp:58] Creating layer conv_d1b-c
I0117 15:36:56.002879  6628 net.cpp:100] Creating Layer conv_d1b-c
I0117 15:36:56.002879  6628 net.cpp:434] conv_d1b-c <- d1b
I0117 15:36:56.003880  6628 net.cpp:408] conv_d1b-c -> d1c
I0117 15:36:56.006880  6628 net.cpp:150] Setting up conv_d1b-c
I0117 15:36:56.006880  6628 net.cpp:157] Top shape: 64 128 64 64 (33554432)
I0117 15:36:56.006880  6628 net.cpp:165] Memory required for data: 2097152000
I0117 15:36:56.006880  6628 layer_factory.cpp:58] Creating layer relu_d1c
I0117 15:36:56.006880  6628 net.cpp:100] Creating Layer relu_d1c
I0117 15:36:56.006880  6628 net.cpp:434] relu_d1c <- d1c
I0117 15:36:56.006880  6628 net.cpp:395] relu_d1c -> d1c (in-place)
I0117 15:36:56.006880  6628 net.cpp:150] Setting up relu_d1c
I0117 15:36:56.006880  6628 net.cpp:157] Top shape: 64 128 64 64 (33554432)
I0117 15:36:56.006880  6628 net.cpp:165] Memory required for data: 2231369728
I0117 15:36:56.006880  6628 layer_factory.cpp:58] Creating layer d1c_relu_d1c_0_split
I0117 15:36:56.006880  6628 net.cpp:100] Creating Layer d1c_relu_d1c_0_split
I0117 15:36:56.006880  6628 net.cpp:434] d1c_relu_d1c_0_split <- d1c
I0117 15:36:56.006880  6628 net.cpp:408] d1c_relu_d1c_0_split -> d1c_relu_d1c_0_split_0
I0117 15:36:56.006880  6628 net.cpp:408] d1c_relu_d1c_0_split -> d1c_relu_d1c_0_split_1
I0117 15:36:56.006880  6628 net.cpp:150] Setting up d1c_relu_d1c_0_split
I0117 15:36:56.007879  6628 net.cpp:157] Top shape: 64 128 64 64 (33554432)
I0117 15:36:56.007879  6628 net.cpp:157] Top shape: 64 128 64 64 (33554432)
I0117 15:36:56.007879  6628 net.cpp:165] Memory required for data: 2499805184
I0117 15:36:56.007879  6628 layer_factory.cpp:58] Creating layer pool_d1c-2a
I0117 15:36:56.007879  6628 net.cpp:100] Creating Layer pool_d1c-2a
I0117 15:36:56.007879  6628 net.cpp:434] pool_d1c-2a <- d1c_relu_d1c_0_split_0
I0117 15:36:56.007879  6628 net.cpp:408] pool_d1c-2a -> d2a
I0117 15:36:56.007879  6628 net.cpp:150] Setting up pool_d1c-2a
I0117 15:36:56.007879  6628 net.cpp:157] Top shape: 64 128 32 32 (8388608)
I0117 15:36:56.007879  6628 net.cpp:165] Memory required for data: 2533359616
I0117 15:36:56.007879  6628 layer_factory.cpp:58] Creating layer conv_d2a-b
I0117 15:36:56.007879  6628 net.cpp:100] Creating Layer conv_d2a-b
I0117 15:36:56.007879  6628 net.cpp:434] conv_d2a-b <- d2a
I0117 15:36:56.007879  6628 net.cpp:408] conv_d2a-b -> d2b
I0117 15:36:56.011879  6628 net.cpp:150] Setting up conv_d2a-b
I0117 15:36:56.011879  6628 net.cpp:157] Top shape: 64 256 32 32 (16777216)
I0117 15:36:56.011879  6628 net.cpp:165] Memory required for data: 2600468480
I0117 15:36:56.011879  6628 layer_factory.cpp:58] Creating layer relu_d2b
I0117 15:36:56.011879  6628 net.cpp:100] Creating Layer relu_d2b
I0117 15:36:56.011879  6628 net.cpp:434] relu_d2b <- d2b
I0117 15:36:56.011879  6628 net.cpp:395] relu_d2b -> d2b (in-place)
I0117 15:36:56.011879  6628 net.cpp:150] Setting up relu_d2b
I0117 15:36:56.011879  6628 net.cpp:157] Top shape: 64 256 32 32 (16777216)
I0117 15:36:56.011879  6628 net.cpp:165] Memory required for data: 2667577344
I0117 15:36:56.011879  6628 layer_factory.cpp:58] Creating layer conv_d2b-c
I0117 15:36:56.011879  6628 net.cpp:100] Creating Layer conv_d2b-c
I0117 15:36:56.011879  6628 net.cpp:434] conv_d2b-c <- d2b
I0117 15:36:56.011879  6628 net.cpp:408] conv_d2b-c -> d2c
I0117 15:36:56.019879  6628 net.cpp:150] Setting up conv_d2b-c
I0117 15:36:56.019879  6628 net.cpp:157] Top shape: 64 256 32 32 (16777216)
I0117 15:36:56.019879  6628 net.cpp:165] Memory required for data: 2734686208
I0117 15:36:56.019879  6628 layer_factory.cpp:58] Creating layer relu_d2c
I0117 15:36:56.019879  6628 net.cpp:100] Creating Layer relu_d2c
I0117 15:36:56.019879  6628 net.cpp:434] relu_d2c <- d2c
I0117 15:36:56.019879  6628 net.cpp:395] relu_d2c -> d2c (in-place)
I0117 15:36:56.019879  6628 net.cpp:150] Setting up relu_d2c
I0117 15:36:56.019879  6628 net.cpp:157] Top shape: 64 256 32 32 (16777216)
I0117 15:36:56.019879  6628 net.cpp:165] Memory required for data: 2801795072
I0117 15:36:56.019879  6628 layer_factory.cpp:58] Creating layer d2c_relu_d2c_0_split
I0117 15:36:56.019879  6628 net.cpp:100] Creating Layer d2c_relu_d2c_0_split
I0117 15:36:56.019879  6628 net.cpp:434] d2c_relu_d2c_0_split <- d2c
I0117 15:36:56.019879  6628 net.cpp:408] d2c_relu_d2c_0_split -> d2c_relu_d2c_0_split_0
I0117 15:36:56.019879  6628 net.cpp:408] d2c_relu_d2c_0_split -> d2c_relu_d2c_0_split_1
I0117 15:36:56.019879  6628 net.cpp:150] Setting up d2c_relu_d2c_0_split
I0117 15:36:56.019879  6628 net.cpp:157] Top shape: 64 256 32 32 (16777216)
I0117 15:36:56.019879  6628 net.cpp:157] Top shape: 64 256 32 32 (16777216)
I0117 15:36:56.019879  6628 net.cpp:165] Memory required for data: 2936012800
I0117 15:36:56.019879  6628 layer_factory.cpp:58] Creating layer pool_d2c-3a
I0117 15:36:56.019879  6628 net.cpp:100] Creating Layer pool_d2c-3a
I0117 15:36:56.019879  6628 net.cpp:434] pool_d2c-3a <- d2c_relu_d2c_0_split_0
I0117 15:36:56.019879  6628 net.cpp:408] pool_d2c-3a -> d3a
I0117 15:36:56.019879  6628 net.cpp:150] Setting up pool_d2c-3a
I0117 15:36:56.019879  6628 net.cpp:157] Top shape: 64 256 16 16 (4194304)
I0117 15:36:56.019879  6628 net.cpp:165] Memory required for data: 2952790016
I0117 15:36:56.019879  6628 layer_factory.cpp:58] Creating layer conv_d3a-b
I0117 15:36:56.019879  6628 net.cpp:100] Creating Layer conv_d3a-b
I0117 15:36:56.019879  6628 net.cpp:434] conv_d3a-b <- d3a
I0117 15:36:56.019879  6628 net.cpp:408] conv_d3a-b -> d3b
I0117 15:36:56.033879  6628 net.cpp:150] Setting up conv_d3a-b
I0117 15:36:56.033879  6628 net.cpp:157] Top shape: 64 512 16 16 (8388608)
I0117 15:36:56.033879  6628 net.cpp:165] Memory required for data: 2986344448
I0117 15:36:56.033879  6628 layer_factory.cpp:58] Creating layer relu_d3b
I0117 15:36:56.033879  6628 net.cpp:100] Creating Layer relu_d3b
I0117 15:36:56.033879  6628 net.cpp:434] relu_d3b <- d3b
I0117 15:36:56.033879  6628 net.cpp:395] relu_d3b -> d3b (in-place)
I0117 15:36:56.033879  6628 net.cpp:150] Setting up relu_d3b
I0117 15:36:56.033879  6628 net.cpp:157] Top shape: 64 512 16 16 (8388608)
I0117 15:36:56.033879  6628 net.cpp:165] Memory required for data: 3019898880
I0117 15:36:56.033879  6628 layer_factory.cpp:58] Creating layer conv_d3b-c
I0117 15:36:56.033879  6628 net.cpp:100] Creating Layer conv_d3b-c
I0117 15:36:56.033879  6628 net.cpp:434] conv_d3b-c <- d3b
I0117 15:36:56.033879  6628 net.cpp:408] conv_d3b-c -> d3c
I0117 15:36:56.055879  6628 net.cpp:150] Setting up conv_d3b-c
I0117 15:36:56.055879  6628 net.cpp:157] Top shape: 64 512 16 16 (8388608)
I0117 15:36:56.055879  6628 net.cpp:165] Memory required for data: 3053453312
I0117 15:36:56.055879  6628 layer_factory.cpp:58] Creating layer relu_d3c
I0117 15:36:56.055879  6628 net.cpp:100] Creating Layer relu_d3c
I0117 15:36:56.055879  6628 net.cpp:434] relu_d3c <- d3c
I0117 15:36:56.055879  6628 net.cpp:395] relu_d3c -> d3c (in-place)
I0117 15:36:56.055879  6628 net.cpp:150] Setting up relu_d3c
I0117 15:36:56.055879  6628 net.cpp:157] Top shape: 64 512 16 16 (8388608)
I0117 15:36:56.055879  6628 net.cpp:165] Memory required for data: 3087007744
I0117 15:36:56.055879  6628 layer_factory.cpp:58] Creating layer upconv_d3c_u2a
I0117 15:36:56.055879  6628 net.cpp:100] Creating Layer upconv_d3c_u2a
I0117 15:36:56.055879  6628 net.cpp:434] upconv_d3c_u2a <- d3c
I0117 15:36:56.055879  6628 net.cpp:408] upconv_d3c_u2a -> u2a
I0117 15:36:56.060879  6628 net.cpp:150] Setting up upconv_d3c_u2a
I0117 15:36:56.060879  6628 net.cpp:157] Top shape: 64 256 32 32 (16777216)
I0117 15:36:56.060879  6628 net.cpp:165] Memory required for data: 3154116608
I0117 15:36:56.060879  6628 layer_factory.cpp:58] Creating layer relu_u2a
I0117 15:36:56.060879  6628 net.cpp:100] Creating Layer relu_u2a
I0117 15:36:56.060879  6628 net.cpp:434] relu_u2a <- u2a
I0117 15:36:56.060879  6628 net.cpp:395] relu_u2a -> u2a (in-place)
I0117 15:36:56.060879  6628 net.cpp:150] Setting up relu_u2a
I0117 15:36:56.060879  6628 net.cpp:157] Top shape: 64 256 32 32 (16777216)
I0117 15:36:56.060879  6628 net.cpp:165] Memory required for data: 3221225472
I0117 15:36:56.060879  6628 layer_factory.cpp:58] Creating layer concat_d2cc_u2a-b
I0117 15:36:56.060879  6628 net.cpp:100] Creating Layer concat_d2cc_u2a-b
I0117 15:36:56.060879  6628 net.cpp:434] concat_d2cc_u2a-b <- u2a
I0117 15:36:56.060879  6628 net.cpp:434] concat_d2cc_u2a-b <- d2c_relu_d2c_0_split_1
I0117 15:36:56.060879  6628 net.cpp:408] concat_d2cc_u2a-b -> u2b
I0117 15:36:56.060879  6628 net.cpp:150] Setting up concat_d2cc_u2a-b
I0117 15:36:56.060879  6628 net.cpp:157] Top shape: 64 512 32 32 (33554432)
I0117 15:36:56.060879  6628 net.cpp:165] Memory required for data: 3355443200
I0117 15:36:56.060879  6628 layer_factory.cpp:58] Creating layer conv_u2b-c
I0117 15:36:56.060879  6628 net.cpp:100] Creating Layer conv_u2b-c
I0117 15:36:56.060879  6628 net.cpp:434] conv_u2b-c <- u2b
I0117 15:36:56.060879  6628 net.cpp:408] conv_u2b-c -> u2c
I0117 15:36:56.073879  6628 net.cpp:150] Setting up conv_u2b-c
I0117 15:36:56.074879  6628 net.cpp:157] Top shape: 64 256 32 32 (16777216)
I0117 15:36:56.074879  6628 net.cpp:165] Memory required for data: 3422552064
I0117 15:36:56.074879  6628 layer_factory.cpp:58] Creating layer relu_u2c
I0117 15:36:56.074879  6628 net.cpp:100] Creating Layer relu_u2c
I0117 15:36:56.074879  6628 net.cpp:434] relu_u2c <- u2c
I0117 15:36:56.074879  6628 net.cpp:395] relu_u2c -> u2c (in-place)
I0117 15:36:56.074879  6628 net.cpp:150] Setting up relu_u2c
I0117 15:36:56.074879  6628 net.cpp:157] Top shape: 64 256 32 32 (16777216)
I0117 15:36:56.074879  6628 net.cpp:165] Memory required for data: 3489660928
I0117 15:36:56.074879  6628 layer_factory.cpp:58] Creating layer conv_u2c-d
I0117 15:36:56.074879  6628 net.cpp:100] Creating Layer conv_u2c-d
I0117 15:36:56.074879  6628 net.cpp:434] conv_u2c-d <- u2c
I0117 15:36:56.074879  6628 net.cpp:408] conv_u2c-d -> u2d
I0117 15:36:56.081879  6628 net.cpp:150] Setting up conv_u2c-d
I0117 15:36:56.081879  6628 net.cpp:157] Top shape: 64 256 32 32 (16777216)
I0117 15:36:56.081879  6628 net.cpp:165] Memory required for data: 3556769792
I0117 15:36:56.081879  6628 layer_factory.cpp:58] Creating layer relu_u2d
I0117 15:36:56.081879  6628 net.cpp:100] Creating Layer relu_u2d
I0117 15:36:56.081879  6628 net.cpp:434] relu_u2d <- u2d
I0117 15:36:56.081879  6628 net.cpp:395] relu_u2d -> u2d (in-place)
I0117 15:36:56.081879  6628 net.cpp:150] Setting up relu_u2d
I0117 15:36:56.081879  6628 net.cpp:157] Top shape: 64 256 32 32 (16777216)
I0117 15:36:56.081879  6628 net.cpp:165] Memory required for data: 3623878656
I0117 15:36:56.081879  6628 layer_factory.cpp:58] Creating layer upconv_u2d_u1a
I0117 15:36:56.081879  6628 net.cpp:100] Creating Layer upconv_u2d_u1a
I0117 15:36:56.081879  6628 net.cpp:434] upconv_u2d_u1a <- u2d
I0117 15:36:56.081879  6628 net.cpp:408] upconv_u2d_u1a -> u1a
I0117 15:36:56.083879  6628 net.cpp:150] Setting up upconv_u2d_u1a
I0117 15:36:56.083879  6628 net.cpp:157] Top shape: 64 128 64 64 (33554432)
I0117 15:36:56.083879  6628 net.cpp:165] Memory required for data: 3758096384
I0117 15:36:56.083879  6628 layer_factory.cpp:58] Creating layer relu_u1a
I0117 15:36:56.083879  6628 net.cpp:100] Creating Layer relu_u1a
I0117 15:36:56.083879  6628 net.cpp:434] relu_u1a <- u1a
I0117 15:36:56.083879  6628 net.cpp:395] relu_u1a -> u1a (in-place)
I0117 15:36:56.084879  6628 net.cpp:150] Setting up relu_u1a
I0117 15:36:56.084879  6628 net.cpp:157] Top shape: 64 128 64 64 (33554432)
I0117 15:36:56.084879  6628 net.cpp:165] Memory required for data: 3892314112
I0117 15:36:56.084879  6628 layer_factory.cpp:58] Creating layer concat_d1cc_u1a-b
I0117 15:36:56.084879  6628 net.cpp:100] Creating Layer concat_d1cc_u1a-b
I0117 15:36:56.084879  6628 net.cpp:434] concat_d1cc_u1a-b <- u1a
I0117 15:36:56.084879  6628 net.cpp:434] concat_d1cc_u1a-b <- d1c_relu_d1c_0_split_1
I0117 15:36:56.084879  6628 net.cpp:408] concat_d1cc_u1a-b -> u1b
I0117 15:36:56.084879  6628 net.cpp:150] Setting up concat_d1cc_u1a-b
I0117 15:36:56.084879  6628 net.cpp:157] Top shape: 64 256 64 64 (67108864)
I0117 15:36:56.084879  6628 net.cpp:165] Memory required for data: 4160749568
I0117 15:36:56.084879  6628 layer_factory.cpp:58] Creating layer conv_u1b-c
I0117 15:36:56.084879  6628 net.cpp:100] Creating Layer conv_u1b-c
I0117 15:36:56.084879  6628 net.cpp:434] conv_u1b-c <- u1b
I0117 15:36:56.084879  6628 net.cpp:408] conv_u1b-c -> u1c
I0117 15:36:56.088879  6628 net.cpp:150] Setting up conv_u1b-c
I0117 15:36:56.088879  6628 net.cpp:157] Top shape: 64 128 64 64 (33554432)
I0117 15:36:56.088879  6628 net.cpp:165] Memory required for data: 4294967296
I0117 15:36:56.088879  6628 layer_factory.cpp:58] Creating layer relu_u1c
I0117 15:36:56.088879  6628 net.cpp:100] Creating Layer relu_u1c
I0117 15:36:56.088879  6628 net.cpp:434] relu_u1c <- u1c
I0117 15:36:56.088879  6628 net.cpp:395] relu_u1c -> u1c (in-place)
I0117 15:36:56.088879  6628 net.cpp:150] Setting up relu_u1c
I0117 15:36:56.088879  6628 net.cpp:157] Top shape: 64 128 64 64 (33554432)
I0117 15:36:56.088879  6628 net.cpp:165] Memory required for data: 4429185024
I0117 15:36:56.088879  6628 layer_factory.cpp:58] Creating layer conv_u1c-d
I0117 15:36:56.088879  6628 net.cpp:100] Creating Layer conv_u1c-d
I0117 15:36:56.088879  6628 net.cpp:434] conv_u1c-d <- u1c
I0117 15:36:56.088879  6628 net.cpp:408] conv_u1c-d -> u1d
I0117 15:36:56.091879  6628 net.cpp:150] Setting up conv_u1c-d
I0117 15:36:56.091879  6628 net.cpp:157] Top shape: 64 128 64 64 (33554432)
I0117 15:36:56.091879  6628 net.cpp:165] Memory required for data: 4563402752
I0117 15:36:56.091879  6628 layer_factory.cpp:58] Creating layer relu_u1d
I0117 15:36:56.091879  6628 net.cpp:100] Creating Layer relu_u1d
I0117 15:36:56.091879  6628 net.cpp:434] relu_u1d <- u1d
I0117 15:36:56.091879  6628 net.cpp:395] relu_u1d -> u1d (in-place)
I0117 15:36:56.092880  6628 net.cpp:150] Setting up relu_u1d
I0117 15:36:56.092880  6628 net.cpp:157] Top shape: 64 128 64 64 (33554432)
I0117 15:36:56.092880  6628 net.cpp:165] Memory required for data: 4697620480
I0117 15:36:56.092880  6628 layer_factory.cpp:58] Creating layer upconv_u1d_u0a_NEW
I0117 15:36:56.092880  6628 net.cpp:100] Creating Layer upconv_u1d_u0a_NEW
I0117 15:36:56.092880  6628 net.cpp:434] upconv_u1d_u0a_NEW <- u1d
I0117 15:36:56.092880  6628 net.cpp:408] upconv_u1d_u0a_NEW -> u0a
I0117 15:36:56.092880  6628 net.cpp:150] Setting up upconv_u1d_u0a_NEW
I0117 15:36:56.092880  6628 net.cpp:157] Top shape: 64 64 128 128 (67108864)
I0117 15:36:56.092880  6628 net.cpp:165] Memory required for data: 4966055936
I0117 15:36:56.092880  6628 layer_factory.cpp:58] Creating layer relu_u0a
I0117 15:36:56.092880  6628 net.cpp:100] Creating Layer relu_u0a
I0117 15:36:56.092880  6628 net.cpp:434] relu_u0a <- u0a
I0117 15:36:56.092880  6628 net.cpp:395] relu_u0a -> u0a (in-place)
I0117 15:36:56.092880  6628 net.cpp:150] Setting up relu_u0a
I0117 15:36:56.092880  6628 net.cpp:157] Top shape: 64 64 128 128 (67108864)
I0117 15:36:56.092880  6628 net.cpp:165] Memory required for data: 5234491392
I0117 15:36:56.092880  6628 layer_factory.cpp:58] Creating layer concat_d0cc_u0a-b
I0117 15:36:56.092880  6628 net.cpp:100] Creating Layer concat_d0cc_u0a-b
I0117 15:36:56.092880  6628 net.cpp:434] concat_d0cc_u0a-b <- u0a
I0117 15:36:56.092880  6628 net.cpp:434] concat_d0cc_u0a-b <- d0c_relu_d0c_0_split_1
I0117 15:36:56.092880  6628 net.cpp:408] concat_d0cc_u0a-b -> u0b
I0117 15:36:56.092880  6628 net.cpp:150] Setting up concat_d0cc_u0a-b
I0117 15:36:56.092880  6628 net.cpp:157] Top shape: 64 128 128 128 (134217728)
I0117 15:36:56.092880  6628 net.cpp:165] Memory required for data: 5771362304
I0117 15:36:56.092880  6628 layer_factory.cpp:58] Creating layer conv_u0b-c_New
I0117 15:36:56.092880  6628 net.cpp:100] Creating Layer conv_u0b-c_New
I0117 15:36:56.093879  6628 net.cpp:434] conv_u0b-c_New <- u0b
I0117 15:36:56.093879  6628 net.cpp:408] conv_u0b-c_New -> u0c
I0117 15:36:56.095880  6628 net.cpp:150] Setting up conv_u0b-c_New
I0117 15:36:56.095880  6628 net.cpp:157] Top shape: 64 64 128 128 (67108864)
I0117 15:36:56.095880  6628 net.cpp:165] Memory required for data: 6039797760
I0117 15:36:56.095880  6628 layer_factory.cpp:58] Creating layer relu_u0c
I0117 15:36:56.095880  6628 net.cpp:100] Creating Layer relu_u0c
I0117 15:36:56.095880  6628 net.cpp:434] relu_u0c <- u0c
I0117 15:36:56.095880  6628 net.cpp:395] relu_u0c -> u0c (in-place)
I0117 15:36:56.095880  6628 net.cpp:150] Setting up relu_u0c
I0117 15:36:56.095880  6628 net.cpp:157] Top shape: 64 64 128 128 (67108864)
I0117 15:36:56.095880  6628 net.cpp:165] Memory required for data: 6308233216
I0117 15:36:56.095880  6628 layer_factory.cpp:58] Creating layer conv_u0c-d_New
I0117 15:36:56.095880  6628 net.cpp:100] Creating Layer conv_u0c-d_New
I0117 15:36:56.095880  6628 net.cpp:434] conv_u0c-d_New <- u0c
I0117 15:36:56.095880  6628 net.cpp:408] conv_u0c-d_New -> u0d
I0117 15:36:56.097879  6628 net.cpp:150] Setting up conv_u0c-d_New
I0117 15:36:56.097879  6628 net.cpp:157] Top shape: 64 64 128 128 (67108864)
I0117 15:36:56.097879  6628 net.cpp:165] Memory required for data: 6576668672
I0117 15:36:56.097879  6628 layer_factory.cpp:58] Creating layer relu_u0d
I0117 15:36:56.097879  6628 net.cpp:100] Creating Layer relu_u0d
I0117 15:36:56.097879  6628 net.cpp:434] relu_u0d <- u0d
I0117 15:36:56.097879  6628 net.cpp:395] relu_u0d -> u0d (in-place)
I0117 15:36:56.097879  6628 net.cpp:150] Setting up relu_u0d
I0117 15:36:56.097879  6628 net.cpp:157] Top shape: 64 64 128 128 (67108864)
I0117 15:36:56.097879  6628 net.cpp:165] Memory required for data: 6845104128
I0117 15:36:56.097879  6628 layer_factory.cpp:58] Creating layer conv_u0d-score_New
I0117 15:36:56.097879  6628 net.cpp:100] Creating Layer conv_u0d-score_New
I0117 15:36:56.097879  6628 net.cpp:434] conv_u0d-score_New <- u0d
I0117 15:36:56.097879  6628 net.cpp:408] conv_u0d-score_New -> score
I0117 15:36:56.098879  6628 net.cpp:150] Setting up conv_u0d-score_New
I0117 15:36:56.098879  6628 net.cpp:157] Top shape: 64 2 128 128 (2097152)
I0117 15:36:56.098879  6628 net.cpp:165] Memory required for data: 6853492736
I0117 15:36:56.098879  6628 layer_factory.cpp:58] Creating layer score_conv_u0d-score_New_0_split
I0117 15:36:56.098879  6628 net.cpp:100] Creating Layer score_conv_u0d-score_New_0_split
I0117 15:36:56.098879  6628 net.cpp:434] score_conv_u0d-score_New_0_split <- score
I0117 15:36:56.098879  6628 net.cpp:408] score_conv_u0d-score_New_0_split -> score_conv_u0d-score_New_0_split_0
I0117 15:36:56.098879  6628 net.cpp:408] score_conv_u0d-score_New_0_split -> score_conv_u0d-score_New_0_split_1
I0117 15:36:56.098879  6628 net.cpp:150] Setting up score_conv_u0d-score_New_0_split
I0117 15:36:56.098879  6628 net.cpp:157] Top shape: 64 2 128 128 (2097152)
I0117 15:36:56.098879  6628 net.cpp:157] Top shape: 64 2 128 128 (2097152)
I0117 15:36:56.098879  6628 net.cpp:165] Memory required for data: 6870269952
I0117 15:36:56.098879  6628 layer_factory.cpp:58] Creating layer loss
I0117 15:36:56.098879  6628 net.cpp:100] Creating Layer loss
I0117 15:36:56.098879  6628 net.cpp:434] loss <- score_conv_u0d-score_New_0_split_0
I0117 15:36:56.098879  6628 net.cpp:434] loss <- label_label_0_split_0
I0117 15:36:56.098879  6628 net.cpp:408] loss -> loss
…
